models/nn_imputation_laia_nav/ckd_classifier_data_imputed.pth (torch, 17477 bytes, 5 tensors)

layer1.weight f4 [64, 21]
000000 99 7a 98 bd e5 00 87 3a 1a 36 3c bd 58 c1 6d 3e
       -0.07445259 0.0010299949 -0.045950033 0.23218286
000010 9e 0b bb 3b a8 ae 60 3e cd 43 11 3e 3a 5f 7c 3e
       0.005708172 0.21941626 0.1418602 0.24645701
000020 31 23 8b 3d b1 13 ca 3d d0 93 1e 3e 25 3d af 3d
       0.067938216 0.09867037 0.15486073 0.08556584
000030 a1 60 0f be 3c 37 0b 3e 62 9a b4 bd 9b a3 95 3c
       -0.14001705 0.13595289 -0.08818509 0.01826649
000040 8f 29 af bd 6e 89 f8 3d a4 53 af 3d 0e c6 85 3e
       -0.085528485 0.12135588 0.08560875 0.26127666
000050 c1 55 6f 3d 93 2f 65 be 1a 12 73 bd 3b 7c a2 3d
       0.05843139 -0.2238143 -0.059343435 0.07933851
000060 b6 95 7f 3e 69 bb c5 bd 1f 90 df bd 06 2d ca 3d
       0.24959454 -0.09654886 -0.10916161 0.09871869
000070 9f 53 f7 3d 4b 9a c5 3d 93 2e 22 3e 04 7a f7 3c
       0.12076496 0.0964857 0.15838079 0.030209549
000080 01 9f fa bd 7b 6b 27 be 96 27 e1 bd 69 cf e7 3d
       -0.12237359 -0.16349594 -0.109938785 0.11318857
000090 a0 b9 12 be 68 e8 a3 bd 41 6f dd bd d8 46 b1 3d
       -0.14328623 -0.08003312 -0.108122356 0.086560905
0000a0 a4 0c a5 3c 3b 99 af 3d 94 e4 c6 3d c3 ba db bd
       0.02014763 0.08574148 0.097115666 -0.10728981
0000b0 a2 a3 4c 3e b2 93 df bb e6 7a 62 bd a6 90 57 be
       0.19984296 -0.0068230266 -0.055292986 -0.21051273
0000c0 50 1c 08 3d 3b 21 eb bd b7 db 55 be 5a e7 4a 3d
       0.033230126 -0.114809476 -0.20884596 0.04953704
0000d0 e7 34 0e be d6 9f 0b 3d 2a 71 0d 3d 46 98 09 bd
       -0.13887368 0.03408798 0.03453175 -0.033592485
0000e0 08 e9 aa 3c 52 65 f8 3d a1 27 44 be c3 23 ca bd
       0.020863071 0.121287 -0.19155742 -0.09870102
0000f0 4b d5 d4 bd 2a 49 06 be 8c ea 28 3c 80 9a 9f bb
       -0.10392245 -0.13113847 0.010309827 -0.0048707128
000100 30 33 13 3e 6e 73 53 3e d2 87 74 bd 9e b1 47 3e
       0.14374995 0.20649502 -0.05969984 0.1950135
000110 93 ae 20 be 18 89 a5 bd bf eb 33 3e 64 98 e4 3d
       -0.15691595 -0.08082789 0.17570399 0.11161879
000120 77 9b 72 3d f1 e3 54 bc 4d 4d 4c 3e c5 49 43 be
       0.059230294 -0.012993799 0.19951363 -0.1907111
000130 44 0d 31 be 51 9a 24 3e b1 9c 3c 3e e7 15 b8 3c
       -0.17290217 0.16074492 0.18419148 0.022471381
000140 ca 98 a9 3d f9 13 08 3e b8 c4 91 bd 47 e0 d3 3c
       0.08281095 0.13288869 -0.07117599 0.02586378
000150 ac 72 68 3e e9 b6 6b be b0 dd 29 be 98 fc 43 3e
       0.22699994 -0.23018993 -0.16588473 0.19139326
000160 46 9c 95 3b fb 2b 5c 3e 2c 37 4c 3d ea 02 e5 bc
       0.0045657484 0.21501152 0.049857304 -0.027955491
000170 9d 3c 4c bc fd de 2a be 25 4a ef bd 88 55 86 bc
       -0.012465623 -0.16686626 -0.11684064 -0.016398206
000180 57 6c 38 3d 84 5a 69 be db bb 19 be ec 19 a3 bd
       0.045025196 -0.22788435 -0.15013067 -0.079639286
000190 eb 52 d2 3d 1d 79 16 3e 85 66 d4 3d f7 f7 e3 3d
       0.102697216 0.14694639 0.103711165 0.1113128
0001a0 65 c5 ca bd 32 f7 28 be e5 b4 29 be 59 04 1d 3e
       -0.09900931 -0.16500548 -0.16572912 0.1533369
0001b0 2c ef 88 3d 0e 35 40 3d 51 cf c6 3d c7 1e 0c bc
       0.066862434 0.046925597 0.09707511 -0.00855226
0001c0 1d a6 ee 3c d4 43 03 be 87 15 b7 bd 00 2e 75 3d
       0.029131943 -0.12818843 -0.08939653 0.059858322
0001d0 37 94 ef bd 06 3e 11 be 6e 6a 3e be 80 eb dd 3d
       -0.116981916 -0.14183816 -0.18595287 0.10835934
0001e0 e4 8e 7f bd 8b 6b 8b bd 5e 0e 23 bd de 2a 40 3d
       -0.06239213 -0.068076216 -0.039808623 0.04691588
0001f0 89 23 25 be 23 cc 3c be e5 de f1 3d f1 db 5f 3d
       -0.16126837 -0.18437247 0.11810092 0.05465311
000200 97 51 6e 3e d6 20 ed bd 20 34 98 bc 8a 18 4e 3d
       0.23273312 -0.115785286 -0.018579543 0.05031637
000210 cc 8f a0 bb 6a e4 09 bd 23 4b 96 3d 4e 0c 1f be
       -0.0048999544 -0.0336651 0.0733855 -0.15532038
000220 da ff f7 bd 89 3f 80 3d 13 cf 12 3d 48 8d 76 3d
       -0.12109347 0.06262118 0.035842013 0.06019333
000230 e7 fc 6c be a4 56 b9 bd 29 ed 4c be d5 c7 85 bd
       -0.2314335 -0.090497285 -0.20012344 -0.065322556
000240 3f 7c 7d be 88 66 22 3c e7 24 62 be df c4 ad 3d
       -0.24754427 0.009912141 -0.2208439 0.08484816
000250 cc 3b 4c be c8 47 59 3e 84 d0 3d be 41 51 27 3e
       -0.19944686 0.21218789 -0.18536574 0.1633959
000260 15 dd 89 3d 36 2c 28 be 1d cc bd 3d 50 f3 81 be
       0.06731621 -0.16423115 0.09267447 -0.25380945
000270 55 b3 13 3d 43 78 aa 3d 07 d4 f4 3b b5 58 d0 3d
       0.036059696 0.08323719 0.0074715647 0.101731695
000280 f5 65 52 3e 79 cb 65 3d 2c b7 85 be 3c c4 35 3d
       0.20546706 0.05610225 -0.26116312 0.044376597
000290 b1 c1 87 3d f7 0d 74 bc f0 bc 13 bc d9 ac 22 3e
       0.066287406 -0.014895908 -0.009017214 0.15886249
0002a0 69 54 84 bd d1 5f 2a 3e 5f 1c f4 bd 28 f1 54 3e
       -0.064614125 0.16638114 -0.11919474 0.20795119
0002b0 86 53 9f 3c 1a 04 70 3e 35 cb 80 3d c9 1e e8 3d
       0.019449007 0.23439065 0.06288759 0.11333997
0002c0 f8 ad 51 be 94 2a 01 3e 7a 12 92 bd e6 9e 7c 3d
       -0.2047652 0.12613899 -0.071324304 0.061674975
0002d0 6f 14 b2 bd 09 84 8a bd 47 e6 0e 3e 83 19 b1 3d
       -0.08695304 -0.06763465 0.13955031 0.08647444
0002e0 9d b4 42 bd c3 14 57 3e 9d e1 2b be 38 11 f7 bd
       -0.047535527 0.21004014 -0.16785283 -0.12063831
0002f0 8f 24 28 be b5 c9 dd bd 04 6d b5 3d 7d 34 45 3e
       -0.16420196 -0.10829488 0.08858684 0.19258304
000300 80 db 06 3e 23 13 83 bd 1f 84 9e bd 66 fd 15 3e
       0.1316967 -0.064001344 -0.07740044 0.14647445
000310 85 38 23 be db 5e 81 3d fd 54 18 3e 09 c2 2c 3e
       -0.15939529 0.0631692 0.1487617 0.16870894
000320 f2 3b d6 3c 86 98 11 3c ed 37 38 be 34 31 09 3d
       0.026151631 0.008886462 -0.17990084 0.03349419
000330 cc e0 f1 bd 19 d8 06 be a7 2d ce 3d 10 92 23 be
       -0.11810455 -0.13168372 0.10067301 -0.15973687
000340 fe 2f 15 3e 72 87 60 3d bb d3 a7 bd 6a 9f 56 3e
       0.14569089 0.05481667 -0.08194681 0.20959249
000350 f4 b0 31 3e a3 ca 57 bd 64 58 48 3e bd 3a e4 3d
       0.17352659 -0.052683484 0.19564968 0.11144016
000360 c7 7b e3 3d 51 87 83 bc 3f 4d 51 3e 8c 43 b5 bd
       0.11107593 -0.016055735 0.20439623 -0.08850774
000370 62 b3 3e 3e 17 af 6f be 73 4c 25 be 91 19 1e be
       0.18623117 -0.23406635 -0.16142444 -0.1543944
000380 6b 54 10 be b6 b9 8d 3d b7 e2 31 be 99 2c 0e be
       -0.14094703 0.06920187 -0.17371641 -0.138842
000390 45 74 45 3c 21 32 a5 bd ab 81 65 3d 19 d0 fb 3d
       0.012051647 -0.08066202 0.056031864 0.12295551
0003a0 2b 71 8f bd da 47 d0 3c 37 01 cb 3d 92 c1 f6 3d
       -0.07004007 0.025424886 0.09912341 0.12048639
0003b0 55 2e 07 3e 55 72 d2 3d a5 5d b1 bd a6 2a 6c 3e
       0.13201268 0.10275713 -0.086604394 0.23063144
0003c0 df e5 05 be 86 33 e6 3d 41 14 9a bd 34 fb 53 3c
       -0.1307597 0.11240296 -0.075233944 0.012938309
0003d0 cb e8 9d bd 86 49 19 3e 3d df 0c be 1d 80 46 3e
       -0.07710417 0.14969453 -0.13757034 0.19384809
0003e0 1a a2 0d 3d ba 74 96 3d b6 bb 90 3c e5 27 b2 3c
       0.03457842 0.073464826 0.017667633 0.021747539
0003f0 9d d2 18 3e 1e 0b 86 bd 71 1b 42 3d 1e 28 16 3e
       0.14924093 -0.06545089 0.04738945 0.14663741

layer1.bias f4 [64]
000000 ca 74 5f 3e f7 7a 63 3e e8 35 48 3e 9e 26 ce 3c
       0.21821895 0.22214876 0.19551814 0.025164898
000010 4e de 16 3d bd f5 a9 3c 35 09 1b be 8a 24 40 3e
       0.0368331 0.02074706 -0.15140231 0.18763939
000020 80 12 7c 3d 0d 41 23 3e 9b 99 32 be db 17 83 3e
       0.06154108 0.15942784 -0.17441408 0.25604138
000030 ee 24 51 bd 07 e3 3d 3e 03 69 e6 bd b4 d0 a6 bd
       -0.05106061 0.18543635 -0.11250498 -0.08145276
000040 46 9e b0 bd fd 73 63 3e bc 02 34 bd d8 95 3a 3e
       -0.08623938 0.22212215 -0.04394792 0.18221223
000050 09 8e 14 be ff aa 28 be 6e d5 b8 bd c2 9e 20 3e
       -0.14507307 -0.1647148 -0.090250835 0.15685561
000060 05 17 05 bd 61 3e 18 be 31 3d 36 bc 4e f2 3f 3e
       -0.032492656 -0.14867546 -0.011122988 0.18744776
000070 95 33 4f 3e 66 b7 b6 bd fc fa 45 3e ec 7b 6f bd
       0.2023452 -0.08921699 0.19334024 -0.05846779
000080 fe 44 3e be ec 50 56 3e 2a 83 15 3e 03 75 55 3e
       -0.18581006 0.20929307 0.14600816 0.20845418
000090 fe 5a 57 3e 38 cd 6f 3d ce 4d 31 be 77 7c 32 3e
       0.21030805 0.05854532 -0.17314836 0.17430292
0000a0 2d c9 b2 bd 5c 23 c3 bc f2 30 d6 3d 12 df 8d 3d
       -0.087297775 -0.023820572 0.10458554 0.06927313
0000b0 59 51 01 3d a6 d8 8d bd d4 56 6d 3d 36 5c c3 bd
       0.03157172 -0.06926088 0.057944134 -0.09539072
0000c0 d3 16 30 bc f9 c1 93 bd 65 77 56 3e f4 d5 d7 bc
       -0.010747629 -0.07214732 0.20943983 -0.026347138
0000d0 0d ca 26 3d 34 05 58 3d da 2a bd bc ab 16 e8 bd
       0.040720034 0.052739337 -0.023091722 -0.113324486
0000e0 28 f0 88 bd cb 94 c1 3d 14 2e 49 bd 16 5b f7 bd
       -0.06686431 0.09452208 -0.04911621 -0.1207792
0000f0 9f 26 c1 bd ff 43 b0 3d 83 a4 e6 bd c7 87 29 3e
       -0.094311945 0.08606719 -0.11261847 0.16555701

layer2.weight f4 [32, 64]
000000 3e 20 30 3d 37 e0 c5 3c bc f3 ce bd f2 f7 da 3d
       0.0429995 0.024154766 -0.101050824 0.10691823
000010 85 32 c6 3d 24 0c d9 3d ea af 41 bc df 00 f5 bd
       0.096776046 0.10598019 -0.011821726 -0.11963057
000020 4d f5 36 3e 45 3f 11 bd 60 de eb 3d 2c e9 a1 bd
       0.17867012 -0.03546073 0.11517024 -0.07905802
000030 ef c4 78 bd ea aa 46 bd ff 90 a6 bc c8 2b 52 3d
       -0.060734686 -0.04850284 -0.020332811 0.051311284
000040 95 ad 77 3d 57 e7 75 bd d0 04 35 3d a8 ae 85 bc
       0.060468275 -0.060035076 0.044194043 -0.016318634
000050 93 46 87 3d fa 1a c9 bc b8 91 90 bc 9b 76 0e 3e
       0.06605258 -0.024548996 -0.01764761 0.13912432
000060 24 07 70 bd 5a 7d d2 bd b1 ff cb bd 7e 53 d5 3c
       -0.05860056 -0.10277815 -0.09960879 0.026040789
000070 84 ee ca bc c7 d6 df bb d8 ee 74 3c a0 12 4d bd
       -0.024771936 -0.0068310234 0.014949523 -0.05006659
000080 42 5c 09 3e a3 1e 12 3c c7 a1 fc 3d d6 7c 10 bc
       0.134141 0.008918437 0.12335544 -0.008818826
000090 a2 47 8c bb 02 45 fd 3c 02 11 3b bd 73 ed a2 3d
       -0.0042810002 0.030916695 -0.045670517 0.07955446
0000a0 29 e0 8c bd 72 38 8e 3b 36 fc ab 3d 09 49 0b 3c
       -0.06878693 0.004340225 0.08397715 0.0085013
0000b0 0f 30 88 3d ca 6d 1a 3e 6a e1 59 3c a7 c3 93 bd
       0.066497914 0.15080944 0.013298372 -0.07215052
0000c0 72 51 93 3d c0 60 4a 3d 6a 11 82 bd d0 3a c1 bd
       0.07193269 0.049408674 -0.06350978 -0.09435046
0000d0 4a 48 49 3c 48 54 91 3d f3 44 43 3c b4 07 16 3d
       0.012285301 0.070961535 0.011918294 0.03662844
0000e0 89 80 e5 3b 63 64 8b 3b 96 76 2a 3d f6 74 0b bd
       0.007003848 0.0042539104 0.041617 -0.03404709
0000f0 07 e8 a7 3d fd 5d 1d 3e fe 76 38 bd 4e 60 2b 3e
       0.081985526 0.15367885 -0.045035355 0.16735956
000100 9c ea 6d bd 48 e1 72 bd ec 57 7d 3c a3 94 70 3d
       -0.05808507 -0.059296876 0.015462857 0.0587355
000110 02 e1 de bd 33 bc 8b bc 89 71 ee bd 52 14 99 bc
       -0.108827606 -0.017057514 -0.11642749 -0.018686447
000120 4e 4c b7 bc e4 c0 45 bd 77 3d 77 3d af a9 f2 bc
       -0.022375252 -0.048279658 0.06036135 -0.029621927
000130 eb 58 ac bb cb 5e 14 bc a5 86 ac bd 04 28 3f 3d
       -0.0052596233 -0.0090558035 -0.08424119 0.04666902
000140 a6 c5 6a 3d 70 94 b3 3d 39 48 af bb 14 b3 e4 bd
       0.0573174 0.087685466 -0.005349186 -0.11166969
000150 e3 fa 83 3d 90 44 9e 3d 61 d4 2d bd bb 23 4f bd
       0.06444337 0.07727921 -0.04243887 -0.050571185
000160 cf 72 3e 3d a2 cc da bd a9 ed de bd 26 7a ba 3d
       0.04649621 -0.10683562 -0.10885174 0.09105329
000170 d0 4b a8 3d 11 c5 eb bc 65 55 70 bd 57 40 ae bb
       0.08217585 -0.028780492 -0.05867519 -0.0053177285
000180 18 5b aa 3d c6 1b 63 3d 5b 0f da bd 18 e7 01 be
       0.08318156 0.05544641 -0.1064746 -0.12685812
000190 2e 62 84 3d 39 8c 14 be 80 e7 06 be af 4c c2 bc
       0.06464039 -0.14506616 -0.13174248 -0.023718206
0001a0 82 ef e4 bd c2 8b 07 bd e4 7d b2 3d f2 9d 61 3c
       -0.11178495 -0.033092268 0.08715418 0.013770567
0001b0 fc 35 91 3d e5 7b 35 3c b1 56 fa bd 60 41 9d bd
       0.07090375 0.011076902 -0.12223566 -0.07678485
0001c0 41 c9 0a be 79 31 16 be 88 0d 04 bd fe 15 75 bd
       -0.13553335 -0.1466731 -0.032239467 -0.059835427
0001d0 cb 36 88 bd 76 d2 13 be fd 19 27 bc 14 d3 b7 3d
       -0.06651076 -0.14435753 -0.010199067 0.08975807
0001e0 1d e1 24 3c 42 12 1d bc d9 b8 38 bd b5 b8 d5 bd
       0.010063437 -0.0095868725 -0.04509816 -0.10435621
0001f0 14 98 f3 bd 6a 99 f2 bd 0d 5b 77 bd 1d 24 02 be
       -0.11894241 -0.11845668 -0.060389567 -0.12709089
000200 71 f3 9e bd 43 d6 d0 bd 0e ce ab 3d 2e 19 89 3d
       -0.077612765 -0.10197117 0.08388911 0.06694256
000210 19 f2 7d 3d 3d 97 bc 3d 36 01 7a 3d bc dd ef 3d
       0.06199846 0.09208534 0.06103631 0.11712214
000220 1d b2 b3 bd 84 0f 8c bd ca 63 e3 bd b9 f3 e8 bc
       -0.08774207 -0.06838897 -0.11103018 -0.028436529
000230 dc 21 59 bc db 97 84 3d c6 32 bd 3d 74 95 16 3d
       -0.013252702 0.06474277 0.092382 0.036763623
000240 51 31 c3 bb 3d 6c 6c bb 49 6a f4 bd 39 8a d7 3d
       -0.0059568067 -0.0036075257 -0.11934335 0.10524411
000250 b5 74 0a be 60 e1 0f be 77 38 8e bd 4d 8f 58 3d
       -0.13521083 -0.14050817 -0.069443636 0.052871037
000260 92 f0 8a bd a2 f2 c3 bc 82 db 8a 3c 01 4d 2c 3e
       -0.067841664 -0.023919407 0.016950373 0.1682625
000270 c1 5c c5 bd 44 ba 4c bd c6 2a 8e bc d0 e1 89 bd
       -0.09636832 -0.049982324 -0.01735438 -0.067325234
000280 cb 10 82 3d be 20 15 be b5 7d 84 bd 91 ee 51 3d
       0.06350859 -0.14563271 -0.06469289 0.051252905
000290 34 06 9b bd 55 ec 2d 3e b1 eb 5a 3d da 6f 0f 3e
       -0.075695425 0.16984685 0.05344743 0.14007512
0002a0 19 f9 67 bd 08 7b 30 bc be 6b ea 3c 99 a7 41 3d
       -0.056634042 -0.01077152 0.028615829 0.047278974
0002b0 76 11 4f 3b 31 f2 ab bd 64 97 a7 3c fb 53 96 bd
       0.00315961 -0.08395804 0.02045793 -0.07340237
0002c0 b9 7d 57 3d 5a 91 86 3d 48 58 13 be f4 6d 80 3d
       0.052610133 0.06570692 -0.14389145 0.06270972
0002d0 65 2a 27 3d fe a6 7b 3c 8c 68 d9 3d e9 6b 3f bd
       0.040811915 0.015359638 0.10615644 -0.04673377
0002e0 75 8b 8f bd 56 2a ef bc 1c ee 94 bd 87 2a bf bb
       -0.07009021 -0.029194992 -0.07271978 -0.005833927
0002f0 6e 2e 0d bd 93 0b 44 3d 4b df 8e 3d 57 b6 95 3d
       -0.034468107 0.0478626 0.069761835 0.07310169
000300 10 54 93 3d 98 79 8a 3d 81 74 52 bd 3e 3f 93 bd
       0.07193768 0.067614734 -0.051380638 -0.07189797
000310 32 3e cb 3b 5f e5 59 3a 2e 2d c8 3c 5c f6 06 3d
       0.0062024826 0.0008312072 0.024435606 0.03294979
000320 b6 37 7c 3d c6 5e 11 bd ec 47 7b 3c cc f9 91 3b
       0.061576568 -0.035490774 0.015336972 0.004454827
000330 db 05 12 3e b2 64 04 3e 69 81 86 3c 3c 47 18 3e
       0.14260046 0.12929037 0.01641913 0.14870924
000340 84 20 13 3e 09 e4 32 bd d6 88 a6 3c 15 e1 ba 3d
       0.14367872 -0.043674503 0.02032892 0.09124962
000350 c8 d1 a2 bc d3 69 25 3e 5d 20 65 bc b2 78 b0 3d
       -0.019875422 0.1615365 -0.013984767 0.08616771
000360 5c 0c 90 bc 42 1a c2 bd 98 3e 1b 3c eb 46 dc bd
       -0.017584018 -0.094776645 0.009475373 -0.10755714
000370 d5 64 fc 3d 68 78 29 3e a9 af 29 3b 19 e5 4b bd
       0.1232392 0.16549838 0.0025892055 -0.04977903
000380 cb c7 47 3d 3a 70 7e 3d 7e cc 95 3d 87 ab 03 3e
       0.04877452 0.062118746 0.073143944 0.12858401
000390 bc 41 95 bd 4a e2 6f 3d 0a c3 1b 3d 67 d4 d7 bd
       -0.072879285 0.058565415 0.0380278 -0.105385594
0003a0 e4 e1 ab bd c6 14 77 3c 26 b1 e5 bc a0 f9 aa 3d
       -0.083926946 0.015080636 -0.028038573 0.083483934
0003b0 08 17 af 3d 5f d6 12 3d 30 82 a4 3d db 4c 31 bd
       0.08549315 0.03584897 0.08032644 -0.043286186
0003c0 2d 26 d6 3d 9c 19 a0 bd 44 d8 27 3e 78 83 f3 3c
       0.104565 -0.078173846 0.16391093 0.029725775
0003d0 38 fc 12 3d 5f 99 b2 bc 58 50 d9 bd b3 dc ce 3d
       0.035885066 -0.021801649 -0.106110275 0.10100689
0003e0 0e fc ee 3d 59 4d 24 3e 50 50 46 3d 1e 39 1b 3e
       0.11669169 0.16045131 0.048416436 0.15158507
0003f0 65 af b8 3d 7a ee c8 3d 16 5e 9e 3d c8 72 be 3b
       0.09017829 0.09811111 0.07732789 0.005812023

layer2.bias f4 [32]
000000 35 7d 06 3e cb a0 a6 3d 31 fb 29 3d b7 85 2d 3e
       0.131337 0.081361376 0.04149932 0.1694554
000010 11 df 4c bd 0b 52 de 3c 50 97 68 3c c0 98 0c bd
       -0.05001742 0.02713873 0.014196232 -0.03432536
000020 05 25 99 bd a7 c2 8d 3d d7 fb c6 3c 34 d3 68 bc
       -0.07477764 0.069218926 0.024290008 -0.014210511
000030 fc 26 bc bd 89 f4 70 3b a8 95 dd 3d 3a 87 a1 3d
       -0.09187123 0.0036766848 0.1081956 0.078871205
000040 87 7f e5 bc 4d 85 b7 3c 4d 78 88 3d 70 d7 04 bc
       -0.028014911 0.02240243 0.066635706 -0.008108005
000050 88 42 74 bc 10 d8 0b 3d 54 57 ba 3d 8b 3e af bd
       -0.01490844 0.0341416 0.09098688 -0.08556851
000060 ad 3f 10 3e a8 09 d7 3d 5a 4e 85 3d cf 5a 1e 3e
       0.1408679 0.10499889 0.06509085 0.15464328
000070 19 6d 15 3d a6 ee ad bd 86 63 05 3e d4 36 88 bc
       0.036480997 -0.08492784 0.13026246 -0.016627707

output.weight f4 [1, 32]
000000 60 0d 62 3e 2e 23 8c bd ad 8f 83 bd 22 7a 3a 3e
       0.22075415 -0.068426475 -0.06423888 0.18210652
000010 e7 98 bd bd 5f 43 80 bd 18 c9 b3 bd a2 2f 52 3e
       -0.092576794 -0.0626285 -0.0877859 0.20525983
000020 a9 f4 9b 3d f7 7d 16 3e 14 1f 18 3e 5a 71 08 be
       0.076150246 0.1469649 0.14855605 -0.1332449
000030 01 02 c3 bc fb 9d 00 be 7f ab 40 be e8 e9 68 be
       -0.023804666 -0.12560265 -0.1881542 -0.22745478
000040 59 df 04 be 1e 38 4e bd 2d ba 62 3e e9 23 33 be
       -0.12975825 -0.050346486 0.22141333 -0.17494167
000050 c4 04 52 3e 08 44 f7 bd 8d c5 0b 3e 2e 55 21 be
       0.2050963 -0.12073523 0.13649578 -0.1575515
000060 e5 1c 53 be cd 09 0d 3e cb fa 12 be 92 2b 05 3e
       -0.20616491 0.1377327 -0.14353482 0.13004902
000070 c2 fd 18 3e d0 40 1b be 8a 4a 4e 3d be 60 85 3d
       0.14940551 -0.15161443 0.050364055 0.06512593
