models/nn_imputed_knn/ckd_model_weights.pth (torch, 18061 bytes, 5 tensors)

layer1.weight f4 [64, 24]
00000000: 8c8c f93d f85f 833e 42b0 49be c144 013e
00000010: 1cbd e0bd 9e18 c43d 83bd d1bd 50a5 0b3e
00000020: 5dd9 453e 0056 e5bb f88f 713e 0ea4 25bc
00000030: d441 ffbd 5540 543e 7063 a8bc 41be 20be
00000040: 726c 693e c4b8 e1bd fbb4 47be 3615 f9bc
00000050: 28cc d7bb 9896 ef3d 92aa 2f3e 94cd 753e
00000060: dcd5 febd 9ff0 ebbd be6a dcbb bcef 2c3e
00000070: 10f1 35be 3bdf de3d ba82 8b3d 173e fe3d
00000080: e3f3 98bd 24d6 c03d 709f 963d 46ed cdbd
00000090: ea79 0e3e da3a f33d 2058 30be bf50 b3bb
000000a0: 2278 ac3c decb a33d 4ae8 4c3c b094 d0bc
000000b0: 13f0 32bd ccd9 8e3c 2937 4f3e b99d ab3d
000000c0: b6ac c2bd 7c46 bcbc 68a8 a6bc a420 f7bd
000000d0: 529f 12be 09fa 15bd 5f6f 583e ee45 0e3e
000000e0: aae9 353e 57eb a23d c608 18bd 02a7 91bd
000000f0: 2022 493d 0020 a93d 2ebc 26be d11a dfbd
00000100: eea4 29be f3d1 e83c 2b36 2fbe ed2a 0a3e
00000110: 5b0c 063d f5b9 babc 395f 683e c85d bc3d
00000120: 571e 30be dcfa 87bd 0057 59be 1d36 083e
00000130: 3a12 3d3e 7524 343e 220b 4fbd 8c86 0e3e
00000140: fe3f f03d 8633 56bd bc7c 6eb8 3dd0 5c3e
00000150: 88f0 0cbe ec15 07be 86b0 c23d 785d 593d
00000160: 3180 713e 9a01 31bd 5c52 8b3d 5f9b 993d
00000170: 455c dabd a4d6 81bd ca3f f5bd 82ad f63d
00000180: d98d 943d 549a c0bd fe7e 943e b4bc 4dbe
00000190: 0dbc 323b fd62 cb3d 4386 fabd fa5a 8f3b
000001a0: 21f6 60be cf80 5abd 76af 193e 4362 9abd
000001b0: a904 043d 5ec0 07bd cfb0 253e 43e3 8e3e
000001c0: 858f 55be 426b 803e 76fa 483e 6553 9e3d
000001d0: 0512 953d b447 cebd ca2b dabc bbac 6bbe
000001e0: 8aca 2abe ef49 0ebe 3e06 e7bc 0baa 5c3e
000001f0: 158f 77be 84da 6e3e 0a80 14be a9b6 1bbd
00000200: 6bab ba3b f0eb 053e e32b 09be 53bf 1bbe
00000210: 0f3b aabd c56e 42be ede9 48be 43e2 47be
00000220: 83bf d1bc 77ea acbd 7b69 363e 3b6a 403e
00000230: 3209 b2bd ede3 8a3e cffe c63d 23d0 8cbd
00000240: b078 20bc aeee 37bd 2dc8 87be c1c4 343e
00000250: d16e e63b b6e5 783d e244 86bc e1ad 6bbd
00000260: b8fb 73be 65d0 1b3e b191 2fbe 6ae9 9cbe
00000270: 4475 10bb f132 5dbe f6b3 e3bd bdb4 313d
00000280: 0f31 1e3e d782 36be 3523 2ebd 41f0 86bd
00000290: 054e 57be 7581 dabd 71ef 88be d076 f1bd
000002a0: 0264 943d 0ea4 19be 72e2 493d 1ce4 32be
000002b0: b25e 26bd c7b2 063d 11cf 02be 3859 fe3d
000002c0: 8c14 3cbe baa7 783e a59b b8bd 2564 dbbd
000002d0: ec2e 8ebd 444f 5cbe 7ddd 81bd 35d8 be3d
000002e0: 378f 503e f50a 14be b99d 4cbe 5f3d d8bd
000002f0: 9286 33be 9ad8 023e c787 533e e6b8 35be
00000300: fe6d 0dbe 443e 3dbe 5bbe 333e 6afd b3bd
00000310: 168b d23a 205c 00be acd9 87bd 6e46 ec3d
00000320: 6c21 97bd 3ea9 2cbe f376 d83d 5a68 57bd
00000330: d527 d93c 46b4 093e cabb 4a3e 2197 9e3d
00000340: f4b8 be3c a13f b43b 6083 313e 6d7b 593e
00000350: 4b40 84be 271f bfbd c0fb 82be b9ec 873d
00000360: faca f7bd 96e2 b4bd cedc 97be 2563 0d3d
00000370: 66e5 3b3e 4b6b 4c3e 1b60 2abe c005 8e3c
00000380: 8a16 313e e588 22be 4bac b4bd 82c9 213e
00000390: 059c b4bd 7eef c53d b3f4 d23d b9e2 3ebc
000003a0: 554f 183c f8b7 2b3c f022 2f3e ec1c 2e3e
000003b0: 381d f53d 26cc ad3d 1bb4 a33d 5cf1 c83d
000003c0: a301 fb3d c106 023d 4d23 a43d cc44 cabd
000003d0: b9d1 303e 68c2 973d 18ed d93d ae2f 08be
000003e0: 66a4 6abe ad1d 943c 6620 89bc 07ca 3f3e
000003f0: 1da9 4ebe 601d 013d 0a81 1cbe 9e82 7bbe
0.1218501 0.25659156 -0.19696143 0.12623884 -0.1097357 0.09575008 -0.102412246 0.1363728
0.19321199 -0.0069987774 0.23590076 -0.0101099145 -0.124637276 0.20727666 -0.020555228 -0.15697576
0.22795275 -0.11021569 -0.19502632 -0.030405622 -0.0065856166 0.11698645 0.17154911 0.24004203
-0.12443134 -0.11520504 -0.006726592 0.16888326 -0.1776774 0.108824216 0.068120435 0.124141864
-0.07468393 0.09415844 0.07354629 -0.10055022 0.13913694 0.118764594 -0.17221117 -0.005472272
0.021053378 0.07997869 0.012506554 -0.025461525 -0.043685984 0.017437838 0.20235886 0.083796926
-0.09505598 -0.022982828 -0.020343974 -0.120667726 -0.14318588 -0.036615405 0.21136235 0.13893864
0.17764917 0.07955044 -0.037117742 -0.07111932 0.04910481 0.08258057 -0.16282722 -0.10893787
-0.16566822 0.028420424 -0.17110507 0.13492937 0.032726627 -0.02279375 0.22692575 0.09197575
-0.17199074 -0.066396445 -0.21224594 0.13301893 0.18463984 0.17592032 -0.050547726 0.13918513
0.117309555 -0.05229523 -5.685979e-05 0.21563812 -0.1376363 -0.13191956 0.095063254 0.053067654
0.23584057 -0.043214418 0.06802818 0.07500338 -0.1066213 -0.063397676 -0.119750574 0.12044813
0.07253618 -0.09404436 0.29003137 -0.20091516 0.0027272732 0.0993099 -0.1223264 0.004374859
-0.2196889 -0.053345498 0.1500834 -0.07538273 0.032231007 -0.03314244 0.16180728 0.27907762
-0.2085553 0.2508183 0.19626793 0.0773075 0.072788276 -0.1007227 -0.026632208 -0.2301511
-0.16678825 -0.13895391 -0.028201219 0.21549241 -0.24175675 0.23325545 -0.14501968 -0.038015995
0.005696704 0.13078284 -0.13395648 -0.15209703 -0.08312046 -0.18987568 -0.19620486 -0.19519906
-0.025604015 -0.08443158 0.17813675 0.18790524 -0.0869316 0.2712702 0.0971657 -0.068756364
-0.009794399 -0.044905357 -0.2651991 0.1765318 0.0070322533 0.060765944 -0.016390268 -0.05753887
-0.23826492 0.15216215 -0.1714542 -0.3064683 -0.0022042552 -0.21601464 -0.11118309 0.043385256
0.15448402 -0.17823349 -0.042514045 -0.065887935 -0.21025856 -0.10669223 -0.2674518 -0.1179024
0.072456375 -0.15003988 0.04928822 -0.1746983 -0.040617652 0.03288534 -0.12774302 0.12419361
-0.18367213 0.24282733 -0.09014062 -0.107124604 -0.069425434 -0.21514612 -0.06341074 0.09318582
0.20367132 -0.14457305 -0.19982041 -0.105585806 -0.17531803 0.1277794 0.20657264 -0.17746314
-0.1381149 -0.18480784 0.17553084 -0.08788569 0.0016063179 -0.12535143 -0.066333145 0.11536871
-0.073794216 -0.16861436 0.10569563 -0.05258975 0.026508251 0.13447675 0.19798198 0.07743669
0.023281552 0.005500749 0.17335272 0.2123849 -0.25830302 -0.09332114 -0.25582695 0.06636948
-0.120992616 -0.0883228 -0.29660648 0.03451838 0.18349227 0.19962804 -0.16638224 0.017336726
0.17293754 -0.15872534 -0.08821925 0.15799525 -0.08818821 0.0966482 0.10300579 -0.011650735
0.009296258 0.010480873 0.17103171 0.1700322 0.11968464 0.08486204 0.07993337 0.09811661
0.122561716 0.031744722 0.080145456 -0.09876403 0.17267503 0.07410127 0.10640925 -0.13299438
-0.22914276 0.018080557 -0.016739082 0.18729411 -0.20181699 0.031522155 -0.152836 -0.24561545

layer1.bias f4 [64]
00000000: 0b03 c0bd 9b5f 643e 2b0d 213e 23ca 883e
00000010: 5a1e e73c 556f 433e f0a8 f9bc 5a8c 2a3e
00000020: 67af 703e 2b6a f93d cc1a 973d d7a1 893d
00000030: a647 0b3e 20e9 713d 4610 6dbd 1be2 b33d
00000040: b11c bdbc d86f 393d 0e1a 623e bfa9 613e
00000050: 5679 913d f047 b7bc 97aa 943d 9845 123e
00000060: 3614 5b3e 1d4f 99bc 1099 9fbd f677 1abd
00000070: b75b 6b3d 918d 2bbd b335 8e3e a8ea efbc
00000080: 9b95 9d3c de19 593e c24e 513e 6fa3 243d
00000090: 8d36 a13d a91a 553e f56a 3cbd 785e 4b3e
000000a0: 7706 08be 1caa 8cbc ac40 523e 7d8c 933d
000000b0: 8fa4 03bd 9a6f d4bd 181c c0bd 8979 20be
000000c0: f35c babc 5305 1c3e fc95 9f3d 7bd7 473e
000000d0: 5f2e 10be 8d27 b23c 048c e33d 39a9 02be
000000e0: 50eb 433e 0a41 9a3d beb2 9bbd e846 bdbc
000000f0: 908e b13c 2a5c 6039 0a37 763c 39d3 a33d
-0.093755804 0.22302096 0.1572768 0.26716718 0.028212715 0.19085439 -0.030476063 0.16655102
0.2350441 0.12178453 0.07378158 0.067203216 0.1360155 0.059060216 -0.057876848 0.087833606
-0.02308497 0.045272678 0.22080252 0.22037409 0.07103221 -0.02237317 0.072591 0.1428436
0.21394429 -0.018714482 -0.07792866 -0.03771206 0.057460513 -0.041883055 0.27775344 -0.029286698
0.019236377 0.21201274 0.204402 0.040194925 0.07871733 0.20810951 -0.04600044 0.19860256
-0.13283716 -0.017170958 0.20532483 0.072045304 -0.032139357 -0.10372849 -0.093803585 -0.15671362
-0.0227494 0.15236406 0.07792279 0.19515793 -0.14080189 0.021747375 0.1111069 -0.12759866
0.19132733 0.075319365 -0.07602452 -0.0231051 0.021674424 0.00021396638 0.015027771 0.07999272

layer2.weight f4 [32, 64]
00000000: 4648 093e d08b 493e 80c2 7bbd 2f0e f73d
00000010: 6ad3 113c f138 4a3e 72dd ee3d de82 273e
00000020: e396 bdbb f9ef 143e 3f75 1e3d ff38 4b3d
00000030: d777 153c ecf6 2d3d 6dbc 99bd 18a6 30bb
00000040: dcc5 6dbd a89e 3fbd a772 323d 88c7 b93c
00000050: af65 103e caef bc3b c557 8f3c 93c9 fd3d
00000060: cce0 8eb8 7894 0bbb 230d 31bc 2de2 f43d
00000070: aed4 783d 13f1 92bd fa16 8cbb 5d3e 8fbb
00000080: 6842 2dbc eae1 813d 5cd0 173e 426c 0b3e
00000090: 1e1a 4a3d 9aca ba3d fa08 9bbd a4ef 003e
000000a0: 1f2f c33d 4f4c b73c f3cd ab3d 358f 9b3d
000000b0: 318a 503c 86a0 bebc 8d53 8e3c 78eb d1bd
000000c0: eee3 7ebc 799d c13d 245b 9b3d b8f5 52bd
000000d0: 7666 a53d c3c4 d4bc 02e9 323e 190e 0c3e
000000e0: 91d6 6e3d 497c 0fbd ed90 dc3d 7123 7d3d
000000f0: c790 b73d 2db9 a0bd fe0d 913b cc01 8c3d
00000100: 1fe5 45bd daeb 433e 7c4f 293e 9ac1 8e3d
00000110: e5cc 3ebd c250 853d 806c a53c 1270 293d
00000120: f47f 2c3d 475e 343d 24bb 64bd 872e 343e
00000130: 4099 963d 46bf dbbb 87ca fa3c 13e2 183e
00000140: 6a09 1bbd a998 073d 8468 663d ab73 743d
00000150: e85f 323e e698 293e 8175 2a3e d04c 44bd
00000160: 7365 f03d d301 e43d f8f3 443e d003 153d
00000170: 8835 83bd a6ed 3cbd f218 1d3d 71a8 e13b
00000180: e56a 273d 732f d13d 66d7 5fbd 17cd 4e3e
00000190: ade1 28bd 7317 383e c592 53bd b1d2 1b3e
000001a0: b1b9 703c 1a82 6fbc b75f bbbc 7498 053d
000001b0: d5ad fbbb a805 40bd 16c4 d4bc 71fb 24bd
000001c0: 28f9 97bc 9af0 273e 86f4 d03d a9bc 2c3e
000001d0: baea e93d 01c1 be3d 3aa4 983d ecb9 2bbd
000001e0: f009 bb3d 96b8 1b3d e671 e13d 6c79 433e
000001f0: d04e e43d 8cc3 1cbd fdfd 293e 0ed8 2f3e
00000200: 8460 fa3d aa97 433d f354 0c3e 91ec a63c
00000210: 3204 db3c a558 ac3d b36a 023c 1c6a 183d
00000220: 1cc6 95bd b98c 703d 1eb1 2c3e d247 a43d
00000230: 0abc 35bc 3197 12bc d235 c13b fb26 193e
00000240: e842 96bd 6c09 ca3c e845 193e 8cbb 63bd
00000250: dde4 0f3e c38e 7dbc 2981 3f3e f342 0d3e
00000260: 3958 283e 2af1 af3d 140d 413e 5642 4b3d
00000270: f234 86bd 8135 ca3c c8e5 fc3d b147 243e
00000280: ce8a cdbc 2b0a 903d 23fa 1c3e 0f60 f23c
00000290: 9368 733d eb05 26bc c116 8b3c 37b5 c83d
000002a0: 02ed 01bd 8df9 a7bb b3cc 5b3d b53a 44bd
000002b0: d1b2 553d cb80 17be 60d7 a43d 4b11 e6bd
000002c0: 92c8 3fbd 7d53 0e3e 9c2c b83d ad24 273e
000002d0: 892c d8bb cf86 2d3e c333 ea3d b9dd f93d
000002e0: 1a33 a13d fbc8 ac3b 0179 0c3e c0d5 a93d
000002f0: 53dc e43d 31a8 d8bc c0da e43a 7377 3a3e
00000300: 5196 06bd fb9a 2abe 82ac 1fbc c482 00be
00000310: 2081 333e a223 30be 26b5 49be 7f4a 923d
00000320: 8b34 a63d 0304 3cbd c45a f4bd 1e81 adbc
00000330: b3fc e43d cee6 d0bc f53e 0a3e 97c0 413c
00000340: b613 103d 2df9 dbbd efed 2d3e 2955 e2bd
00000350: df6b 1abe ca67 19be f2ff 1cbe ee57 aabd
00000360: cb66 c0bd 0791 98bd 59e5 513c 7f1c 8abc
00000370: 141b 493b 02a7 093e 4c15 fb3c 435f d6bc
00000380: 57d2 1c3e 9c16 ecbb 52b9 023d 9661 48bd
00000390: d9f1 983a 2d78 983d 30a8 653e 4724 cabd
000003a0: b2fd bcbd c31a a5bc 97ba 483d f356 9c3b
000003b0: e937 1c3e 4b31 913d 2bef 3b3d 24fc c03c
000003c0: 1931 f93d 846d c5bc 62e2 b9bd 43ac 97bc
000003d0: da7f 4bbd b38f 503c 46cb 34ba c87c 693c
000003e0: b977 f7bd a949 c7bb ee53 1dbe a701 96bd
000003f0: 6a97 ba3c fb80 963d 917d bb3d a90b 30be
0.13406476 0.1968224 -0.061464787 0.12063252 0.008900503 0.19748284 0.11663331 0.16358516
-0.0057858094 0.14544667 0.038686033 0.049614903 0.00912281 0.04247181 -0.075066425 -0.0026954468
-0.05805002 -0.046782166 0.043566372 0.022678152 0.14101289 0.00576589 0.017497906 0.12391963
-6.812959e-05 -0.002129821 -0.010806355 0.11957202 0.060749702 -0.071748875 -0.0042752 -0.004371448
-0.0105749145 0.06341918 0.14825577 0.13615516 0.049341314 0.091206744 -0.075700715 0.12591416
0.09530472 0.022375254 0.08388891 0.07595674 0.01272826 -0.023269903 0.017373824 -0.1024999
-0.015557272 0.09453864 0.07585743 -0.051503867 0.080761835 -0.02597273 0.17471698 0.13677253
0.058310095 -0.035030637 0.1076983 0.061801378 0.08963161 -0.078478195 0.004426717 0.0683628
-0.04831421 0.19132939 0.16534227 0.0697052 -0.04658212 0.06509544 0.020193338 0.041366644
0.042114213 0.044035222 -0.055842534 0.17595874 0.07353449 -0.006706151 0.03061415 0.1492999
-0.037850775 0.033104572 0.056252018 0.059680622 0.17419398 0.16562232 0.16646387 -0.047924817
0.117381 0.111331604 0.19233692 0.03638059 -0.06406695 -0.046125077 0.038353868 0.006886535
0.040873427 0.10214128 -0.05464878 0.20195423 -0.041230846 0.17977695 -0.051653642 0.15217091
0.01469271 -0.014618421 -0.022872789 0.032616094 -0.0076806345 -0.046880394 -0.025972407 -0.040278856
-0.018551424 0.16400376 0.10202889 0.16868843 0.11421724 0.09314156 0.07453199 -0.041925356
0.09132755 0.03801783 0.110080525 0.19089288 0.11147845 -0.038272426 0.16600795 0.17172262
0.1222544 0.04775206 0.1370428 0.020376476 0.026735399 0.08415345 0.007960009 0.03721057
-0.07313177 0.058727954 0.1686444 0.08021511 -0.011092195 -0.00894718 0.0058963085 0.14956276
-0.0733698 0.024662696 0.14968073 -0.05559878 0.14052148 -0.015475932 0.18701614 0.1379507
0.16439904 0.0859092 0.18852645 0.04962381 -0.06553067 0.024683716 0.12348515 0.16042973
-0.025090601 0.070331894 0.15329795 0.02958682 0.0594259 -0.010133247 0.016978623 0.09800189
-0.03172017 -0.0051261843 0.053662013 -0.04790755 0.052172486 -0.14795224 0.08048892 -0.11233767
-0.046822138 0.13899036 0.089928836 0.16322584 -0.006597106 0.16945957 0.11435654 0.12200493
0.07871075 0.005272982 0.13718034 0.08292723 0.11174836 -0.026447387 0.0017460212 0.18209629
-0.032858197 -0.16660683 -0.009745719 -0.12549883 0.17529726 -0.17201093 -0.19698009 0.07143115
0.081154905 -0.045902263 -0.11931375 -0.021179732 0.11181011 -0.025500681 0.13500579 0.011825702
0.035175048 -0.10740886 0.16985296 -0.11051399 -0.15080212 -0.14980999 -0.1533201 -0.083175525
-0.09394606 -0.07449537 0.012811028 -0.016859291 0.0030686306 0.13442615 0.030649804 -0.026168471
0.15314613 -0.0072048437 0.031915016 -0.04892119 0.0011668756 0.07444797 0.2242744 -0.098702006
-0.09228076 -0.020154363 0.04900607 0.0047711073 0.15255703 0.0708948 0.045882385 0.02355773
0.12167568 -0.024100073 -0.09076382 -0.018514758 -0.049682476 0.012729573 -0.0006896745 0.014250942
-0.12083382 -0.006081779 -0.15364048 -0.07324534 0.022777278 0.0734882 0.09154809 -0.17191948

layer2.bias f4 [32]
00000000: 95d8 3b3e 24fd 293d 06b8 283e 765f 0b3d
00000010: a13c 103e 3eef 373e f8aa 52bc ae55 81bd
00000020: 9576 ff3d 0d1d 0a3e 09bf 6abc 1740 3abd
00000030: fd2f 363e 4e21 f13d 4cc1 b43d b868 ba3c
00000040: 344f da3d 6e3b 47bd 0295 c1bc bdb0 b23d
00000050: fe0e f03d 10b3 f23c 9441 c43d f7a3 c43c
00000060: e72f 593d e7c8 5a3d 3604 583d d1a6 bb3d
00000070: ce36 15bd 3827 14bd 0919 a53c 7f57 403e
0.18344338 0.04150118 0.1647645 0.034026586 0.14085628 0.17962357 -0.012858145 -0.0631517
0.124737896 0.13487644 -0.014327773 -0.045471277 0.17791744 0.117739305 0.08825931 0.022755012
0.10659638 -0.04864066 -0.023630623 0.087251164 0.117216095 0.0296264 0.095828205 0.024003966
0.0530242 0.05341425 0.05273839 0.09162677 -0.03642922 -0.036170214 0.02015354 0.18783377

output.weight f4 [1, 32]
00000000: 50dc 383e cd4c 5e3e 7ae4 fc3d 23fa 2cbe
00000010: 15f9 823e 5db5 c8bd a6eb 003e ca4d ffbd
00000020: 6463 ca3d fe64 d6bd 7271 013e 3d03 57be
00000030: eb96 7d3e ed39 c9bd c922 813e f8fb 3dbe
00000040: 0892 0ebe 5808 513e 841d 1e3e f3ba 79be
00000050: 1e6d 1bbe 43a6 edbd e82f 0b3e e440 683e
00000060: 1c44 f93d 4e41 f3bd 79de 093e 4db9 813e
00000070: 7935 403e 8379 4a3e 1e65 e23d 43ed d2bd
0.18052793 0.21708985 0.12348266 -0.16892295 0.2558066 -0.09800217 0.12589893 -0.12466009
0.098822385 -0.104684815 0.12640932 -0.20997329 0.24764602 -0.098255016 0.2522185 -0.1855315
-0.13922894 0.20413339 0.15440947 -0.24387722 -0.15178344 -0.116039775 0.13592494 0.22681004
0.12171194 -0.1187769 0.13463773 0.25336686 0.18770398 0.19772916 0.11054443 -0.1029916
